SubhaloMatching/models/weights_param_TNG100_5bins_5.pth (torch, 2179 bytes, 1 tensors)

linear.weight f4 [1, 25]
000000 b8 28 3c 3c 8d d9 7c 3a 6b 31 aa 3a 74 34 89 3b
       0.0114843175 0.00096454547 0.0012984698 0.004187161
000010 8b 63 8f 3b 1c 93 8c 3b 5e f4 8c 3b 43 70 1f 3c
       0.00437588 0.0042899977 0.004301592 0.009731355
000020 9d bd 6c 3a 1a 0e a7 3b fb 37 16 3c 08 e9 8b 3b
       0.000903094 0.0050981166 0.00916862 0.004269723
000030 e9 0c 12 3b 66 46 3d 3a a1 90 8a 3a 07 ce 97 3a
       0.0022285527 0.0007220268 0.0010571667 0.0011581787
000040 ee d1 0b 3c 94 c1 19 3c ca f6 08 3c 48 76 0b 3c
       0.008533938 0.0093845315 0.00835962 0.008512087
000050 2a 94 b8 3b 9b bb d1 3b 5c 5c d2 3b 46 c8 ea 3b
       0.005632897 0.006400538 0.0064197015 0.0071649877
000060 52 e6 ab 3e
       0.33574158
