SubhaloMatching/models/weights_param_TNG100_5bins_3.pth (torch, 2179 bytes, 1 tensors)

linear.weight f4 [1, 25]
0	0x3f17e761	0.5933743
1	0x3f17e5e0	0.59335136
2	0x3f03f072	0.51538765
3	0x3dc7a9b1	0.09749163
4	0x3ca4a00c	0.020095848
5	0x3c8457fa	0.016155232
6	0x3c611b8f	0.013739481
7	0x3c794174	0.015213359
8	0x3c7d3bfc	0.015456196
9	0x3c83ee04	0.016104706
10	0x3c811d37	0.015761001
11	0x3c527744	0.012845818
12	0x3c58c2d7	0.013230047
13	0x3c8fea82	0.017567877
14	0x3c8457d4	0.016155161
15	0x3c950f2e	0.018195715
16	0x3c9fd048	0.019508496
17	0x3c97288d	0.018451953
18	0x3c98b29e	0.018639859
19	0x3c9da9ea	0.01924606
20	0x3c76afd7	0.015056572
21	0x3c2dd57f	0.0106099835
22	0x3bcef3c0	0.0063156784
23	0x3bb56b3b	0.0055364645
24	0x3e8ff88a	0.28119308
