SubhaloMatching/models/weights_param_TNG50_5bins_1.pth (torch, 2172 bytes, 1 tensors)

linear.weight f4 [1, 25]
0	0x3e15b407	0.14619456
1	0x3ffe66a4	1.9875073
2	0x404f8c06	3.2429214
3	0x402acf3b	2.6688983
4	0x405371e6	3.3038268
5	0x4015974c	2.3373594
6	0x3fb64877	1.4240865
7	0x3ebf02cb	0.37306818
8	0x3f440bf4	0.7658074
9	0x3e853acf	0.2602143
10	0x3e8c5a30	0.27412558
11	0x3ea0cf27	0.31408045
12	0x3e6a7edb	0.22899954
13	0x3e872874	0.2639805
14	0x3e6e0e1d	0.23247571
15	0x3eb2b8ef	0.34906718
16	0x3e3b4def	0.18291448
17	0x3e6a09f9	0.22855367
18	0x3d9c7567	0.0763958
19	0x3d93f5e6	0.07224636
20	0x3d64c196	0.05584868
21	0x3d58c67b	0.05292366
22	0x3db9ef0d	0.090787984
23	0x3c879a53	0.01655308
24	0x3f19f717	0.60142654
