SubhaloMatching/models/weights_param_TNG100_5bins_4.pth (torch, 2179 bytes, 1 tensors)

linear.weight f4 [1, 25]
0.034064025 0.029167477 0.031400807 0.0087537365 0.0040475763 0.003667425 0.0034071445 0.006198848
0.0064620217 0.006965112 0.008389974 0.011636335 0.013402197 0.014251536 0.014263284 0.01384159
0.013045531 0.012036207 0.012075614 0.010739207 0.010781504 0.0024174848 0.0024705243 0.002480891
0.21449333
00000000: b886 0b3d a2f0 ee3c 229e 003d d56b 0f3c
00000010: 88a1 843b 2e59 703b 664a 5f3b b51f cb3b
00000020: 5ebf d33b 983b e43b 1a76 093c 54a6 3e3c
00000030: e394 5b3c 467f 693c 8db0 693c d6c7 623c
00000040: ecbc 553c 8333 453c ccd8 453c 80f3 2f3c
00000050: e8a4 303c aa6e 1e3b 85e8 213b 7296 223b
00000060: 24a4 5b3e
