SubhaloMatching/models/weights_param_TNG50_5bins_3.pth (torch, 2172 bytes, 1 tensors)

linear.weight f4 [1, 25]
0	0x3f8ba3a6	1.0909317
1	0x3ca97e36	0.020690065
2	0x3eb00698	0.3438003
3	0x3c59a5c4	0.0132841505
4	0x3b14aecd	0.0022687197
5	0x3d442019	0.047882173
6	0x3d36bd68	0.044614226
7	0x3dbcf18d	0.0922576
8	0x3c86649c	0.016405396
9	0x3c82bf76	0.015960436
10	0x3d8d89ab	0.06911024
11	0x3cb4e2ab	0.02208074
12	0x3d36469d	0.044500936
13	0x3cf6be9d	0.030120188
14	0x3cb30fb3	0.021858072
15	0x3ca3796c	0.01995536
16	0x3c95f43f	0.018304942
17	0x3cc74aa0	0.024327576
18	0x3c7d3817	0.015455267
19	0x3c4dfb46	0.012572115
20	0x3c7fb87b	0.015607948
21	0x3bd9188b	0.00662524
22	0x3727c5ac	1e-05
23	0x3c4c7ebb	0.012481387
24	0x3e9a7e55	0.3017451
