SubhaloMatching/models/weights_param_TNG100_5bins_2.pth (torch, 2179 bytes, 1 tensors)

linear.weight f4 [1, 25]
0.3785206 0.3784917 0.376254 0.37728155 0.35708442 0.16136305 0.058823787 0.03757876
0.036367662 0.03579891 0.035613235 0.03585937 0.035813592 0.035658076 0.03570784 0.040239777
0.041816078 0.041416585 0.03570053 0.030908518 0.027128154 0.024304956 0.023137104 0.021454025
0.33290505
00000000: 74cd c13e aac9 c13e 5da4 c03e 0c2b c13e
00000010: c5d3 b63e 5b3c 253e 36f1 703d 30ec 193d
00000020: 42f6 143d e1a1 123d 2fdf 113d 46e1 123d
00000030: 46b1 123d 340e 123d 6242 123d 77d2 243d
00000040: 5647 2b3d 70a4 293d b83a 123d dc33 fd3c
00000050: dd3b de3c 301b c73c 068a bd3c 5ac0 af3c
00000060: 8872 aa3e
