SubhaloMatching/models/weights_param_TNG50_5bins_4.pth (torch, 2172 bytes, 1 tensors)

linear.weight f4 [1, 25]
0	0x3c434632	0.011918591
1	0x3d3bc9e6	0.045846842
2	0x3bf046eb	0.007332673
3	0x3aa1b217	0.00123364
4	0x3c35ac63	0.0110884635
5	0x3aca648a	0.001544134
6	0x3b3e4e68	0.0029038433
7	0x3c45f159	0.012081468
8	0x3b79c50e	0.0038111839
9	0x3bb3204e	0.0054664975
10	0x3c284e98	0.010272644
11	0x3bb8da31	0.005641245
12	0x3c5be034	0.013420153
13	0x3cce51b3	0.025185442
14	0x3c030e5c	0.007999029
15	0x3d39dc52	0.04537613
16	0x3c05dc01	0.008170129
17	0x3aac17ff	0.001312971
18	0x3cd281d5	0.025696674
19	0x3c083bf0	0.008315071
20	0x3c14e264	0.009087179
21	0x3b1d7d1b	0.0024030867
22	0x3b6a77a3	0.0035776875
23	0x3727c5ac	1e-05
24	0x3e9bd3cc	0.30435026
