SubhaloMatching/models/weights_param_TNG100_5bins_1.pth (torch, 2179 bytes, 1 tensors)

linear.weight f4 [1, 25]
1.0610576 1.0621715 1.0620655 0.9405387 0.7626542 0.64870626 0.26099858 0.24778733
0.12218786 0.111200646 0.11072879 0.10975552 0.11053011 0.09069338 0.0660269 0.05950429
0.057863653 0.057814714 0.048999935 0.03696354 0.0362878 0.017298272 0.012614708 0.014325226
0.39415592
00000000: bcd0 873f 3cf5 873f c3f1 873f 25c7 703f
00000010: 4e3d 433f 9d11 263f 9ba1 853e f6bb 7d3e
00000020: a13d fa3d 2abd e33d c7c5 e23d 81c7 e03d
00000030: 9c5d e23d 73bd b93d 1d39 873d c5ba 733d
00000040: 7002 6d3d 1fcf 6c3d 28b4 483d 1567 173d
00000050: 84a2 143d 1bb5 8d3c ecad 4e3c 5ab4 6a3c
00000060: cece c93e
