SubhaloMatching/models/weights_param_TNG50_5bins_2.pth (torch, 2172 bytes, 1 tensors)

linear.weight f4 [1, 25]
00000000: 3c8e aa3d c568 0240 5c98 413f f33b c93e
00000010: 15d2 4e3e 0523 cc3e c7b0 853e d22e b23d
00000020: b542 073e 3184 133e d77b e83d 2536 e03d
00000030: 23f5 9c3d 20e5 ac3d 880b 293d a023 8c3d
00000040: 39a7 8d3c acca 533c f3ce dd3c 0328 043d
00000050: 2c2e 193d 0f59 023d 66f1 f33c 92d7 423c
00000060: f947 ca3e
0.0832791 2.0376446 0.75623107 0.3930355 0.20197327 0.39870468 0.26111433 0.087003365
0.1320904 0.14405896 0.113517456 0.10947827 0.076639436 0.084421396 0.041270763 0.068427324
0.017291652 0.012926739 0.02707622 0.03226472 0.03739755 0.031823214 0.029778194 0.011892216
0.39508036
